char-rnn.pytorch/shakespeare.pt (torch_old, 264254 bytes, 12 tensors)

weight f4 [100, 100]
0	0xbf88cd40	-1.0687637
1	0xbf80e319	-1.0069305
2	0x3f2a691b	0.6656663
3	0xbe1f7011	-0.15570094
4	0xbefbd46a	-0.49185497
5	0x3eac5102	0.33655554
6	0x3f3a294c	0.72719264
7	0xbf6823df	-0.90679735
8	0xbc27349d	-0.010205415
9	0x3f51e541	0.8199044
10	0xbe3bb385	-0.183302
11	0x3f8aca88	1.0843058
12	0x402085a6	2.5081573
13	0xc00bfe80	-2.1874084
14	0xbf845215	-1.033755
15	0xbfa73f3a	-1.306617
16	0xbed9d25b	-0.425433
17	0xc00d0cbf	-2.203903
18	0xbf46327b	-0.7742078
19	0xbe06a644	-0.13149363
20	0x3e299936	0.16562352
21	0xbe8328c9	-0.25617054
22	0x3f4b2181	0.79348
23	0x3f726241	0.94681174
24	0x3eb46b72	0.35238224
25	0x3e0bc226	0.1364828
26	0xbf6d5365	-0.92705375
27	0x400fbc66	2.245874
28	0x3f9726a3	1.1808666
29	0x3fe1dc3f	1.7645339
30	0x3eecd01a	0.4625252
31	0xbf88996a	-1.0671818
32	0x3c3d08ed	0.011537773
33	0x3ece2cf1	0.40268663
34	0x3e6e7e30	0.23290324
35	0x3e29a9c7	0.16568671
36	0x3fa0f69c	1.2575259
37	0xbd9fdf00	-0.07806206
38	0x3fe266ae	1.7687585
39	0xc00cdc0a	-2.20093
40	0x3fa39898	1.2780943
41	0x3f76b4f9	0.9636989
42	0xbefada60	-0.48994732
43	0x3f871d00	1.0555725
44	0xbf88cc15	-1.0687281
45	0xbfb13ae7	-1.38461
46	0x3f9439b2	1.1580107
47	0x3e56cd7c	0.20976824
48	0xbf908e73	-1.1293472
49	0x3faae326	1.335057
50	0xbebf8242	-0.37404066
51	0x3d783a4a	0.060602464
52	0x3f5dc091	0.8662196
53	0x3f259a4a	0.6468855
54	0x3face14b	1.3506254
55	0xbf6c88e8	-0.923964
56	0x3fab0aa9	1.3362628
57	0xbf35e792	-0.71056473
58	0x3fdfc4af	1.7481898
59	0x3f4ca0ee	0.7993306
60	0xbfabd4d4	-1.3424325
61	0xbe5f0870	-0.21780562
62	0x3e2d6278	0.16932094
63	0x3f6f6e8d	0.9352806
64	0x3f53a6a2	0.82676136
65	0xbf96229e	-1.1729314
66	0x3fee1f7e	1.8603361
67	0x3f814dc7	1.0101861
68	0xbeb496d8	-0.35271335
69	0xbf70df26	-0.940905
70	0xbe3a521e	-0.18195388
71	0xbeb65eca	-0.35619193
72	0x3ecfe7ba	0.4060648
73	0xbecac5b6	-0.39603966
74	0xbf3babd9	-0.73309094
75	0x3beddcc8	0.007258985
76	0x3ea5cf6b	0.3238481
77	0x3e07c9fe	0.13260648
78	0xbff49b06	-1.9109809
79	0xbfbce90a	-1.4758618
80	0x3eb975a5	0.36222568
81	0x3e2c314e	0.16815683
82	0x3fb19027	1.3872117
83	0xbe2a9207	-0.16657268
84	0x3e87196b	0.2638658
85	0x3f8adf59	1.084941
86	0x3da7fe1b	0.08202764
87	0xbf05b45e	-0.52228343
88	0xbef1c135	-0.47217718
89	0xbf528507	-0.82234234
90	0x3f796e56	0.97433984
91	0x3faf7409	1.3707286
92	0x3f2cb184	0.6745837
93	0xbeb1c606	-0.34721392
94	0x3f11ef7f	0.5700607
95	0xbf4086b6	-0.7520555
96	0xbf74a483	-0.95563525
97	0xbfa066ee	-1.2531412
98	0xbf715d44	-0.9428294
99	0x3e9effe4	0.31054604
100	0x3f81fbfb	1.0155023
101	0x3db21c23	0.08696773
102	0xbe46e7d7	-0.19424377
103	0xbf70ce57	-0.9406485
104	0xbf8bc39f	-1.0919074
105	0x3d9f3b8e	0.07775031
106	0xbf226ba9	-0.63445526
107	0xbdb48f1d	-0.08816359
108	0xbf9dcf04	-1.2328801
109	0x3fa57f9a	1.2929566
110	0xbfcb2383	-1.5870212
111	0xbf026946	-0.50941885
112	0xbf5e74e0	-0.8689709
113	0x3ecc3e59	0.39891317
114	0xbda45551	-0.08024085
115	0xbffe9bf1	-1.989134
116	0x3f08aa9e	0.5338534
117	0xbf4058fb	-0.75135773
118	0x3fa6a70d	1.301973
119	0x3f1760be	0.5913199
120	0x3fd93bda	1.697139
121	0x3fa30562	1.2736018
122	0x3e72a9a2	0.23697522
123	0x3d7860c4	0.060639158
124	0x3f7362c2	0.9507257
125	0x3e4ef634	0.20211107
126	0x401d08d4	2.4536638
127	0xbf9baa3b	-1.2161325
128	0xbfb36196	-1.4014156
129	0xbe832671	-0.25615266
130	0xbf5fd402	-0.87432873
131	0xbe445001	-0.19171144
132	0x3f9cbf92	1.2245963
133	0x401f306b	2.4873302
134	0xbff7b3f5	-1.9351794
135	0x3f765ff9	0.9624019
136	0xbf54c349	-0.8311048
137	0x3fddce04	1.7328496
138	0xbf99b414	-1.200808
139	0x3e156152	0.14587906
140	0x3d0fc1a4	0.03509678
141	0xbe12a764	-0.14321667
142	0x3f5b4a61	0.8566037
143	0xbfcd725a	-1.6050522
144	0x3f418306	0.7559055
145	0x3ed70761	0.41997817
146	0xbf39c7f3	-0.72570723
147	0x3ec29743	0.3800603
148	0xbe88ce59	-0.2671993
149	0xbd6f970d	-0.058493663
150	0xbf91e1d0	-1.1397038
151	0xbf085557	-0.5325522
152	0x3f40defe	0.7534026
153	0xbff113a5	-1.883412
154	0x3f4f4f71	0.8098059
155	0x3fc52672	1.5402358
156	0xbd8c84b8	-0.068612516
157	0x3d67919d	0.056535352
158	0x3f460908	0.7735753
159	0xbf1123ba	-0.5669514
160	0x3f9db960	1.2322197
161	0x3f044de2	0.5168134
162	0x3f90d48f	1.1314868
163	0x3e3b2ee5	0.18279608
164	0x3f3dc6f4	0.74131703
165	0x3e4300e0	0.19043303
166	0xbe1d70bb	-0.15375035
167	0xbed6707d	-0.41882697
168	0x4003b913	2.058171
169	0x400373c3	2.0539405
170	0x3fcb8e9f	1.59029
171	0xbdc3bce1	-0.0955751
172	0x3ee833e9	0.45352104
173	0xbf17ddd8	-0.5932288
174	0xbeee4f78	-0.46545005
175	0xbfb9ae9a	-1.4506409
176	0x3f896264	1.0733151
177	0x3df3f12f	0.119112365
178	0x3f827e5d	1.0194813
179	0x3e9370e4	0.28797066
180	0xbf87a6f8	-1.059783
181	0xbe0606c3	-0.13088517
182	0x3e0b61a7	0.1361147
183	0x3fadeff5	1.3588854
184	0xbfd634b6	-1.6734836
185	0xbf1b6092	-0.6069423
186	0xbf73c8d6	-0.95228326
187	0xbec30d90	-0.38096285
188	0x3fb4e287	1.4131631
189	0x3e3a5ec8	0.18200219
190	0xbf99fa27	-1.2029465
191	0xbf384b99	-0.7199035
192	0xbf114e1d	-0.56759816
193	0x3eb13afd	0.34615317
194	0xbf5b47b8	-0.8565631
195	0x3fd8c50e	1.6935136
196	0xbfa7131b	-1.3052706
197	0xbf8483ab	-1.0352682
198	0x3edce642	0.43144423
199	0x3ee1365f	0.43986794
200	0xbf101788	-0.56285906
201	0x4013e946	2.3111129
202	0x3f0e0a4e	0.55484474
203	0x3f97412e	1.1816766
204	0xbded3951	-0.11583198
205	0xbe8807e0	-0.26568508
206	0x3fe82598	1.8136473
207	0xbeda1de5	-0.42600933
208	0xbfba0c6f	-1.4535044
209	0x3f9ba81a	1.2160676
210	0x3f98a411	1.1925069
211	0xbf2ad1fd	-0.66726667
212	0xbf47464e	-0.7784165
213	0xbe63c032	-0.22241285
214	0xbfe263c2	-1.7686694
215	0x3f49d967	0.78847355
216	0xbe7de790	-0.24795365
217	0xbfeaca97	-1.8343076
218	0xbc4f6aaf	-0.012659713
219	0x3ef8553e	0.48502535
220	0x3fa6e136	1.3037479
221	0xbffe3555	-1.9860026
222	0xbf1f7c23	-0.6229879
223	0xbe9fea5c	-0.3123349
224	0xbf50770e	-0.81431663
225	0xbf868020	-1.0507851
226	0xbe35625b	-0.17713301
227	0xbf2fb403	-0.6863405
228	0xbfee1d39	-1.8602668
229	0xbed12431	-0.40847924
230	0x3f4d16eb	0.80113095
231	0x3f62e6f5	0.8863366
232	0x3f3cf81c	0.73816085
233	0x3f9be7b9	1.2180091
234	0x3fa452cd	1.2837769
235	0xbfe3cd37	-1.7797002
236	0xbe6acf10	-0.2293055
237	0xc02be81b	-2.6860416
238	0xbed46dfa	-0.41490155
239	0xbe924358	-0.28567004
240	0x3febc290	1.8418751
241	0xbdc2d583	-0.095133804
242	0xbe0c7f12	-0.13720348
243	0xbf23d596	-0.6399778
244	0x3fd173bc	1.6363444
245	0xbf661337	-0.8987307
246	0x3f409244	0.75223184
247	0xbf888a8c	-1.0667281
248	0xbf286efd	-0.65794355
249	0x3fa153f9	1.2603751
250	0xbf1677e6	-0.587767
251	0xbda07cc1	-0.07836295
252	0x3ecde63e	0.40214723
253	0x3fae6d9c	1.36272
254	0xbf14fc9f	-0.5819797
255	0x3f04e8a2	0.5191747

weight_ih_l0 f4 [100, 100]
0	0xbda3d42e	-0.079994544
1	0x3cdec64b	0.027194163
2	0x3ea0647f	0.31326672
3	0x3ce257cf	0.027629761
4	0xbe379d97	-0.1793121
5	0xbcd8dda7	-0.02647288
6	0xbc6e45f5	-0.014543046
7	0x3e26bfe3	0.16284136
8	0x3e626207	0.22107707
9	0xbe07d46a	-0.13264623
10	0x3dc0f167	0.09421044
11	0x3ef0ffc2	0.47070128
12	0x3c858bd1	0.016302021
13	0x3c8e75ca	0.01739015
14	0x3e4bf6a0	0.19918299
15	0x3ea6e3c2	0.3259564
16	0x3d8dbdcd	0.06920967
17	0xbeb13212	-0.34608513
18	0x3dd532d7	0.104100876
19	0x3ba86240	0.0051386654
20	0x3e632c65	0.22184904
21	0x3e2cde17	0.16881596
22	0x3da42cb5	0.0801634
23	0xbf24afdf	-0.6433086
24	0x3f0da591	0.5533076
25	0xbd80d575	-0.06290714
26	0xbbcfd025	-0.0063419514
27	0x3e0da724	0.1383329
28	0xbca0758b	-0.019587299
29	0xbc13b202	-0.009014608
30	0xbdde589e	-0.10856746
31	0xbe2f6ed0	-0.17132115
32	0xbdcad616	-0.09904115
33	0x3c94d0e5	0.018166015
34	0x3e5e5515	0.21712144
35	0x3dcb5a29	0.09929306
36	0xbd9aec72	-0.075646296
37	0x3e4329e2	0.19058946
38	0x3dcc6ca7	0.09981661
39	0xbce27cf8	-0.02764748
40	0x3e5c1e19	0.21495856
41	0xbc83f1f1	-0.016106578
42	0x3e2ed624	0.17073876
43	0xbe44e97c	-0.19229692
44	0x3d5bbbca	0.053645886
45	0x3dd157cd	0.10221825
46	0x3e665680	0.22493935
47	0x3e44b461	0.19209434
48	0xbd5e1b7b	-0.054225426
49	0xbe4e440c	-0.20143145
50	0xbe12fec4	-0.14354998
51	0x3e6a4c3c	0.22880644
52	0x3e4d2e5b	0.20037214
53	0xbe84945a	-0.25894433
54	0x3e1254b6	0.14290127
55	0x3e598257	0.21241127
56	0xbdff88ec	-0.12477288
57	0x3d813c0b	0.063102804
58	0xbe751a93	-0.23935919
59	0xbd5aa096	-0.053375803
60	0x3e314e88	0.17315114
61	0x3dae7335	0.08518068
62	0xbcf33566	-0.029688548
63	0xbd988386	-0.07446961
64	0xbd335b4d	-0.043788243
65	0x3e7ea26b	0.24866645
66	0xbe2dbff2	-0.16967753
67	0xbd61c74f	-0.055121716
68	0xbe659db6	-0.22423443
69	0xbd2a6118	-0.041596502
70	0x3e1a1c22	0.15049794
71	0xbe1512a2	-0.14557889
72	0x3e1448d4	0.14480907
73	0x3e4f1edd	0.20226617
74	0xbe80d0a1	-0.2515917
75	0xbe2aa6e9	-0.16665234
76	0x3e88fcf4	0.26755488
77	0x3e0e03f5	0.13868697
78	0x3e13ff2c	0.14452809
79	0x3d0dee53	0.03465111
80	0x3de3ddfc	0.111263245
81	0xbc4a4121	-0.0123446295
82	0xbe66fc3c	-0.22557157
83	0x3d8cd0b8	0.068757474
84	0x3cabb070	0.020958155
85	0x3e216124	0.15759712
86	0x3d9ddf73	0.07708635
87	0xbc589d03	-0.013221028
88	0xbdc513bc	-0.09622905
89	0x3dac44e7	0.084115796
90	0xbe277b01	-0.16355516
91	0x3d02671a	0.031836607
92	0x3df9ca41	0.1219678
93	0xbe716993	-0.2357543
94	0xbc040b8d	-0.008059395
95	0x3b9498dc	0.004534824
96	0x3e425842	0.1897898
97	0xbd9f6c57	-0.07784336
98	0xbd988bdf	-0.07448553
99	0xbe9b2090	-0.3029828
100	0x3e0aa811	0.13540675
101	0xbb9b117f	-0.0047323103
102	0xbe20a1c9	-0.15686716
103	0x3c1b4c1e	0.009478597
104	0x3e1bb72d	0.15206595
105	0x3e1b23b1	0.15150334
106	0xbe31663d	-0.17324157
107	0xbd20f02e	-0.039291553
108	0x3ea5eda5	0.3240787
109	0x3e0368ac	0.12832898
110	0xbe574ebe	-0.21026132
111	0xbe0c5984	-0.13706023
112	0x3e499c26	0.19688472
113	0xbe420af8	-0.18949497
114	0xbe06d771	-0.13168122
115	0xbe41a3c1	-0.18910123
116	0xbc20a31e	-0.009804515
117	0xbc51c932	-0.012804316
118	0x3c8a13c1	0.016855123
119	0x3d8c739e	0.0685799
120	0x3ee75146	0.45179194
121	0xbe802583	-0.2502862
122	0x3eb48020	0.35254002
123	0x3ec8a6f0	0.39189863
124	0xbe98e3b9	-0.2986124
125	0x3dfe5968	0.12419397
126	0x3ea0af38	0.3138368
127	0xbcd6e737	-0.026233299
128	0x3d900514	0.070322186
129	0x3ea0a365	0.3137466
130	0x3e5be112	0.21472576
131	0xbcc6027a	-0.024171103
132	0x3cd815fc	0.02637767
133	0xbe7d0d80	-0.24712181
134	0xbe2e73a1	-0.17036296
135	0x3e2c0b7a	0.16801253
136	0xbe09d918	-0.13461721
137	0xbe91025f	-0.28322122
138	0x3ca34efa	0.01993512
139	0x3e125959	0.14291896
140	0xbebbb2f4	-0.36659968
141	0xbddbe2f1	-0.10736645
142	0x3e3109fb	0.17288963
143	0x3ef98922	0.48737437
144	0x3df97296	0.12180059
145	0xbcadbe91	-0.021209033
146	0xbd7433b7	-0.05961963
147	0x3e2e2f33	0.17010193
148	0xbe1082c8	-0.14112389
149	0x3f098a4a	0.5372664
150	0x3db991d2	0.09061016
151	0x3e59619b	0.2122864
152	0xbe2fb954	-0.17160541
153	0x3b815b77	0.003947671
154	0x3d86877c	0.0656881
155	0x3c1b57db	0.009481396
156	0x3d61b6cb	0.055105966
157	0x3e30bb8f	0.17259048
158	0xbaf04e38	-0.0018333858
159	0xbe9547cf	-0.29156348
160	0xbe8e0201	-0.27735904
161	0x3c97bdb8	0.018523082
162	0xbd0e65d4	-0.03476508
163	0xbe271ea4	-0.16320282
164	0xbe1840e9	-0.14868511
165	0x3e5799f0	0.21054816
166	0x3d4e086a	0.050300993
167	0x3d8bcbe7	0.06826001
168	0xbe387975	-0.18015082
169	0x3e5bb3dd	0.21455331
170	0xbd887a3e	-0.06663941
171	0xbcbb09ca	-0.022831816
172	0x3dac67aa	0.0841821
173	0xbc565ab0	-0.013083145
174	0x3dd4e8ab	0.103959404
175	0x3e13fe63	0.1445251
176	0xbe5f45e5	-0.21804006
177	0xbd3055f7	-0.043050732
178	0x3ea6cc1c	0.32577598
179	0xbbd4110f	-0.00647176
180	0xbe9fe500	-0.312294
181	0xbe247158	-0.16058862
182	0xbbec94fc	-0.0072199088
183	0x3e68f7aa	0.22750726
184	0x3e7890f7	0.2427405
185	0x3c7c5115	0.015400191
186	0xbeb5e87f	-0.35528943
187	0xbe424e00	-0.18975067
188	0x3e26b09f	0.16278313
189	0xbe54f545	-0.20796688
190	0x3e468053	0.1938489
191	0x3d6d5085	0.057938118
192	0x3e18320a	0.14862838
193	0x3d9f7e96	0.07787816
194	0x3e5aa3fe	0.2135162
195	0x3e00f501	0.12593462
196	0x3d85bb2e	0.06529842
197	0x3e6a0522	0.2285352
198	0x3e1db0cd	0.15399475
199	0xbe8d8a20	-0.27644444
200	0x3d891b18	0.06694621
201	0xbe4bf0bb	-0.1991605
202	0xbcae173e	-0.021251317
203	0xbb1b909c	-0.0023737317
204	0xbd9e06b7	-0.077161245
205	0x3e0537c5	0.13009556
206	0x3c108ba5	0.008822356
207	0xbe169e65	-0.1470886
208	0xbe07ea8e	-0.1327307
209	0x3df25ded	0.11834321
210	0x3d55fd6c	0.052243635
211	0xbf168341	-0.5879403
212	0xbdd375fa	-0.103252366
213	0xbe376941	-0.17911245
214	0xbd4fec85	-0.050762672
215	0x3d9c7563	0.07639577
216	0xbe64039c	-0.22267002
217	0x3e7df316	0.24799761
218	0xbdc53e10	-0.09630978
219	0x3d4f2f9e	0.05058252
220	0x3d28fe58	0.041258186
221	0xbe16d4cd	-0.14729615
222	0x3ead898a	0.33893996
223	0x3cfbb73e	0.030727025
224	0xbe6f09f9	-0.23343648
225	0xbdfee24f	-0.12445509
226	0x3d20c717	0.039252367
227	0x3e2cd905	0.16879661
228	0x3cd5e0fd	0.02610826
229	0xbd620b92	-0.055186816
230	0x3f2508d3	0.6446659
231	0xbd02ed34	-0.031964496
232	0x3d8ccc6a	0.068749264
233	0xbd95ab5b	-0.07308074
234	0x3bdac044	0.006675752
235	0xbe099a8b	-0.1343786
236	0x3e6b1846	0.22958478
237	0xbed9c76c	-0.4253496
238	0x3e33f401	0.17573549
239	0xbe25c1ce	-0.16187212
240	0xbe502256	-0.20325598
241	0x3e272e9e	0.16326377
242	0x3d0074cf	0.031361397
243	0x3e0c67a1	0.13711406
244	0xbd5aed8b	-0.053449195
245	0xbe544ad5	-0.20731671
246	0xbd0a0dd2	-0.033704586
247	0x3e280f3e	0.16412064
248	0xbb2a50dc	-0.0025988137
249	0x3df704ec	0.12061486
250	0xbe0cb1a6	-0.13739643
251	0xbd9152d2	-0.07095875
252	0x3e9d9087	0.30774328
253	0xbd35a89b	-0.044350248
254	0x3e58282a	0.21109071
255	0x3e298d2a	0.16557756

weight_hh_l0 f4 [100, 100]
0	0x3d69e4a8	0.05710283
1	0x3e8abfaf	0.27099368
2	0xbe669523	-0.22517829
3	0x3e67621c	0.2259602
4	0x3c99221a	0.018693019
5	0xbf149012	-0.58032334
6	0x3fc0a07b	1.5048975
7	0x3e3e6f8d	0.18597241
8	0xbf3622b1	-0.71146685
9	0x3f140bb9	0.5783039
10	0x3e72e851	0.23721434
11	0xbe4aee10	-0.19817376
12	0xbf6cd495	-0.92511874
13	0xbf73117d	-0.9494856
14	0xbf581a59	-0.84415203
15	0xbd7579a4	-0.05993046
16	0x3d43de0f	0.047819193
17	0xbf00c8bd	-0.503063
18	0xbbf3bdb0	-0.007438384
19	0xbf49673e	-0.7867316
20	0xbfd8c7bf	-1.6935958
21	0x3f14a889	0.58069664
22	0x3f461b81	0.7738572
23	0x3f7c2ad6	0.9850286
24	0x3f30fbd0	0.69134235
25	0xbdc28d0f	-0.09499561
26	0xbd308ae9	-0.043101225
27	0xbe775561	-0.24153663
28	0x3e7e9c67	0.2486435
29	0x3eff5f9c	0.49877632
30	0xbf015ba4	-0.5053046
31	0x3ebe83f6	0.37210053
32	0x3f51c4c9	0.81940895
33	0x3f962edd	1.1733052
34	0xbfc22be3	-1.5169643
35	0x3f9c9994	1.2234368
36	0xbf17b703	-0.5926363
37	0xbfa01162	-1.2505305
38	0x3f5ffd15	0.8749555
39	0xbf14b055	-0.5808156
40	0x3e974713	0.29546413
41	0x3f6638b5	0.8993028
42	0x3f4c3f3e	0.79784
43	0xbf7e5840	-0.9935341
44	0x3f229323	0.6350576
45	0x3e0dbfde	0.13842723
46	0xbf8aa05f	-1.0830191
47	0xbdd0e4d0	-0.101998925
48	0xbe6a73da	-0.22895756
49	0x3f16b896	0.58875406
50	0xbcbb894c	-0.022892617
51	0x3d159bba	0.036525466
52	0xbf0a1c39	-0.53949314
53	0xbe351243	-0.17682748
54	0xbf148b4d	-0.58025056
55	0xbf71110c	-0.94166636
56	0xbf427ae6	-0.7596878
57	0xbf99e785	-1.2023779
58	0x3e20f339	0.15717782
59	0xbf6c58f0	-0.9232321
60	0xbfabe357	-1.3428754
61	0x3f322dd9	0.6960121
62	0x3d0a31d3	0.033738922
63	0xbf1f6048	-0.6225629
64	0x3ebecfe6	0.3726799
65	0xbf4c5639	-0.79819065
66	0x3fe79a9c	1.8094058
67	0x3ef89ad3	0.48555622
68	0x3f067f4f	0.5253801
69	0x3f458fac	0.7717235
70	0xbf8d2cfb	-1.1029352
71	0x3f91e21f	1.1397132
72	0xbd25fa6c	-0.040522024
73	0x3f2f9a1c	0.6859453
74	0xbeab762e	-0.334886
75	0xbfc086c5	-1.5041128
76	0xbefed7eb	-0.49774107
77	0x3f1ab6ed	0.6043537
78	0xbe68efd5	-0.22747739
79	0x3fd24ce6	1.6429718
80	0xbee7691e	-0.45197386
81	0x3fa0522d	1.2525078
82	0xbfdd98f2	-1.73123
83	0xbd3df3c6	-0.04637506
84	0x3f22b113	0.63551444
85	0x3dd165c7	0.102244906
86	0x3e962b5a	0.2932995
87	0x3f0a67e0	0.5406475
88	0xbe08ca85	-0.13358505
89	0xbdd956e3	-0.106122755
90	0x3fe047db	1.7521929
91	0xbf23638b	-0.63823766
92	0x3e47fdce	0.19530413
93	0xbea1b162	-0.31580645
94	0xbf0c938f	-0.54912657
95	0xbf407995	-0.7518552
96	0xbefcd3aa	-0.49380237
97	0xbec61814	-0.38690245
98	0x3e711887	0.23544513
99	0xbf03c1ad	-0.514674
100	0x3f24d720	0.64390755
101	0xbe65df38	-0.22448432
102	0xbd5e4de5	-0.054273505
103	0x3fb4d0d8	1.4126234
104	0xbfb30afe	-1.398773
105	0xbfa25d56	-1.2684734
106	0x3ff95c5d	1.9481312
107	0xbf296091	-0.66162974
108	0xbf0cca20	-0.5499592
109	0x3fabda19	1.3425933
110	0xbff33db2	-1.9003203
111	0x3e50e817	0.20401035
112	0x3fb47347	1.409768
113	0xbfcea612	-1.6144431
114	0xbf9a5d75	-1.2059771
115	0x3e0248e5	0.1272312
116	0xc02d22d8	-2.7052517
117	0xbfad871d	-1.3556858
118	0xbf696112	-0.9116374
119	0x3f74efbf	0.95678324
120	0xbf7d470b	-0.9893653
121	0x3fd0c5ed	1.6310402
122	0x3f428735	0.7598756
123	0x400db157	2.213949
124	0xbfe1055a	-1.7579758
125	0x400e58d8	2.2241726
126	0x3d44630c	0.04794602
127	0xbf2156df	-0.6302318
128	0x3fad5a95	1.3543268
129	0x3f83a6da	1.0285294
130	0x3f85b824	1.044682
131	0x3fc28680	1.5197296
132	0x40099076	2.1494422
133	0xbe0ce4e3	-0.13759188
134	0xbfab4f2e	-1.3383539
135	0x3e89a3f7	0.26882908
136	0xbe8b98a0	-0.2726488
137	0xc00d0da7	-2.2039583
138	0xbebcbfba	-0.36865026
139	0x3ee1fbdc	0.44137466
140	0x3f73ad0c	0.95185924
141	0xbf06f8b8	-0.52723265
142	0x3f08e6f6	0.5347742
143	0x3e163a2e	0.14670631
144	0x3e7cba00	0.24680328
145	0x3fe498ab	1.785909
146	0xbf347ce2	-0.70503056
147	0x3e7e7c29	0.24852051
148	0x3f93d798	1.1550169
149	0xbf0c5ed6	-0.5483221
150	0x3f94ebe6	1.163449
151	0x3fdbaa60	1.7161369
152	0x3db2de33	0.087337874
153	0xbecd34a1	-0.40079215
154	0x3f89d1ac	1.0767112
155	0x3f55efd7	0.8356909
156	0xbf764818	-0.96203756
157	0xbe83f558	-0.2577312
158	0x3f16e116	0.58937204
159	0xbf461876	-0.77381074
160	0xc0249433	-2.5715454
161	0x3f952a4c	1.1653533
162	0xbf866695	-1.0500056
163	0xbf8cec61	-1.1009637
164	0xbfa49ea6	-1.2860916
165	0xbf973fca	-1.1816342
166	0xbf63d055	-0.88989764
167	0x3f8e05d4	1.1095529
168	0x3f800119	1.0000335
169	0x3f97e85d	1.1867787
170	0xbcc0864e	-0.023501541
171	0x3f8757cc	1.0573668
172	0x3fa42e26	1.2826583
173	0xbdb30453	-0.08741059
174	0x3e57ae03	0.21062474
175	0xbfbd9c04	-1.4813237
176	0x3ea57db0	0.32322454
177	0x3fc91b1a	1.5711396
178	0x3fbfb219	1.4976226
179	0x3fc8195b	1.5632738
180	0xbfb336ca	-1.4001095
181	0x3f2f41dd	0.68459874
182	0x40262202	2.5958257
183	0x3faaffea	1.3359349
184	0x3ee6d99a	0.45087892
185	0xbfa43382	-1.2828219
186	0xbfd93e9f	-1.6972235
187	0x3eae5a93	0.34053478
188	0xbef0e252	-0.4704767
189	0x3fa17a28	1.2615404
190	0xbe0401ac	-0.12891263
191	0xc00495c5	-2.0716412
192	0x3eb575ae	0.35441345
193	0xbe8b7e38	-0.27244735
194	0xbf3e295e	-0.7428187
195	0x3e232612	0.15932491
196	0xbef819cb	-0.48457178
197	0xbfbea017	-1.4892606
198	0x3fd19094	1.6372247
199	0xbf3c713e	-0.73610294
200	0xbf650feb	-0.89477414
201	0x3e0eca4f	0.13944362
202	0xbe953e35	-0.29149023
203	0xbd89472b	-0.06703027
204	0x3edd958b	0.43278155
205	0x3e387a30	0.18015361
206	0xbf6002c3	-0.87504214
207	0xbea9edfb	-0.33189377
208	0xbf189a5c	-0.59610534
209	0xbf026db6	-0.50948656
210	0xbe478320	-0.19483614
211	0x3dd8ade4	0.10580042
212	0xbdedacca	-0.116052225
213	0x3db910f0	0.09036434
214	0x3d5a08c0	0.053231
215	0x3e44e685	0.19228561
216	0x3e94bef3	0.29051933
217	0x3fadcce5	1.3578154
218	0x3f1df559	0.61702496
219	0xbf9ce0a0	-1.225605
220	0xbed40356	-0.41408795
221	0x3e602cc1	0.21892072
222	0xbf5bfec3	-0.8593561
223	0x3f6511c3	0.8948023
224	0xbf9ab246	-1.2085655
225	0x3e89a47b	0.268833
226	0xbeb371b2	-0.3504768
227	0x3f0337b8	0.51256895
228	0xbf807837	-1.0036687
229	0x3db61a7b	0.088917695
230	0x3edeabd9	0.43490484
231	0xbfb53130	-1.4155636
232	0xbf15a53e	-0.58455265
233	0xbe0030ae	-0.1251857
234	0x3f6b0ade	0.91813457
235	0x3eec0957	0.46100876
236	0x3ed9c794	0.4253508
237	0xbd7e2548	-0.062047273
238	0xbeddaa79	-0.43294123
239	0xbea11048	-0.31457734
240	0x3ebaac43	0.3645955
241	0xbf292a2e	-0.66079986
242	0xbf755c22	-0.9584371
243	0x3f8744a4	1.0567822
244	0x3e2492b4	0.16071588
245	0xbfdbaa57	-1.7161359
246	0xbe3919da	-0.18076268
247	0xbf0d04f8	-0.55085707
248	0x3e2c3653	0.16817598
249	0x3f034e1d	0.51291066
250	0xbf9016cb	-1.1256956
251	0xbfcea511	-1.6144124
252	0x3e85ad31	0.26108697
253	0xbeae5623	-0.34050092
254	0xbf7569b9	-0.95864445
255	0xbf26a526	-0.65095747

bias_ih_l0 f4 [100]
0	0xbeb72335	-0.35769048
1	0xbd8ecac0	-0.06972265
2	0x3d5dd7f8	0.054161042
3	0x3dfda8e4	0.12385729
4	0xbcc5dc58	-0.02415292
5	0x3c907213	0.01763252
6	0xbcaaba11	-0.020840677
7	0x3cbafe4b	0.022826334
8	0x3d6aa52d	0.05728643
9	0x3e034508	0.12819302
10	0xbe6aa784	-0.22915465
11	0xbca64aae	-0.020299282
12	0xbe224329	-0.15845932
13	0xbdc6ede2	-0.09713341
14	0x3e28d7f0	0.16488624
15	0x3db689bb	0.08912989
16	0xbe96e12d	-0.2946867
17	0x3cf845f6	0.030306797
18	0xbc9ee39c	-0.019395642
19	0x3daa2b54	0.083090454
20	0x3c04ca2c	0.008104842
21	0xbd137a1f	-0.036005136
22	0x3dc34533	0.09534683
23	0xbe22b006	-0.1588746
24	0xbe180477	-0.14845453
25	0xbe39de3e	-0.18151185
26	0xbdf016ab	-0.117230736
27	0xbd990bca	-0.07472952
28	0xbdaae5e3	-0.08344629
29	0x3e47136a	0.19441
30	0xbe83ed9d	-0.25767222
31	0x3d65908e	0.05604606
32	0xbe6f5d70	-0.23375487
33	0x3def8769	0.11695749
34	0xbe0120b0	-0.12610126
35	0xbd9684f9	-0.07349581
36	0x3d777f1c	0.060423955
37	0x3d360332	0.04443664
38	0x3dd71ba6	0.105033204
39	0x3d399efa	0.045317627
40	0xbed64629	-0.41850403
41	0xbd263f0b	-0.040587466
42	0xbd57a11c	-0.05264388
43	0x3eaf6152	0.34253937
44	0x3d16ff9c	0.03686486
45	0xbbb86020	-0.0056266934
46	0x3ea4f4a2	0.3221789
47	0xbe18c8d5	-0.14920361
48	0x3eb574a9	0.35440567
49	0xbdd43c80	-0.10363102
50	0xbdaed4ea	-0.08536704
51	0x3cf9d42a	0.030496676
52	0xbe5e545b	-0.21711867
53	0x3e6e5058	0.23272836
54	0x3df05ab7	0.117360525
55	0x3e60205f	0.21887349
56	0x3e0aaf9b	0.1354355
57	0x3e31f91c	0.17380184
58	0xbdbdbe1b	-0.09264775
59	0x3ba18fee	0.004930488
60	0x3d12cc9a	0.035839655
61	0x3d87f82e	0.066391334
62	0x3a9ef528	0.0012127506
63	0x3d88e820	0.06684899
64	0x3e9636fa	0.2933882
65	0xbe4d0f05	-0.20025261
66	0xbd871b84	-0.06597045
67	0xbe49cd51	-0.19707228
68	0x3e32bca2	0.1745477
69	0xbd18549d	-0.03719007
70	0x3c8f2d6a	0.01747771
71	0xbcc21dd8	-0.023695871
72	0xbc827f5d	-0.015929872
73	0xbe2782d3	-0.16358499
74	0xbd011afd	-0.03151988
75	0x3e447eb9	0.19188966
76	0xbdcd02aa	-0.10010274
77	0x3de6d1dd	0.11270497
78	0xbdc595c1	-0.09647704
79	0x3d51ecb6	0.051251136
80	0xbc1f8169	-0.009735444
81	0xbe243184	-0.16034514
82	0xbc46d87e	-0.012136577
83	0xbdb90088	-0.090333045
84	0x3d87af3b	0.066252194
85	0x3d0448c6	0.032295965
86	0xbbbb2f96	-0.00571246
87	0xbe9735f4	-0.2953335
88	0x3de546d7	0.11195152
89	0x3e64fd8d	0.22362347
90	0xbd3d4fb0	-0.046218574
91	0x3e0b1185	0.13580902
92	0x3e08a56f	0.13344358
93	0x3dc12bec	0.094322056
94	0x3aa68117	0.0012703267
95	0x3bbcd8cb	0.0057631484
96	0x3e178b47	0.14799224
97	0xbd38c69d	-0.045111287
98	0xbe584fbe	-0.21124169
99	0x3e2da0da	0.16955891

bias_hh_l0 f4 [100]
0	0xbe695706	-0.22787103
1	0x3d383082	0.044968136
2	0x3d80dad1	0.06291736
3	0x3e274a52	0.16336945
4	0x3d17fd0a	0.03710655
5	0xbdcceb70	-0.10005844
6	0xbd4866ba	-0.048926093
7	0xbe238f01	-0.1597252
8	0x3c167318	0.009182714
9	0x3e49249e	0.19642875
10	0xbe44b2d4	-0.19208843
11	0x3cca71ee	0.024712529
12	0xbd96020e	-0.07324611
13	0xbdcc3eb6	-0.09972899
14	0xbc90ebcc	-0.017690562
15	0x3d62bc9f	0.055355664
16	0xbe7812cf	-0.24225925
17	0x3bb695a5	0.0055720382
18	0xbcb08b5d	-0.021550829
19	0x3e135bd6	0.14390501
20	0x3d8257e2	0.063644186
21	0xbd61c60f	-0.055120524
22	0xbd0f0b1d	-0.034922708
23	0xbcdef3ad	-0.027215803
24	0xbe64c191	-0.22339465
25	0xbdbb5244	-0.0914655
26	0xbe373a51	-0.1789334
27	0xbe2958f8	-0.16537845
28	0xbdb463bf	-0.088080876
29	0x3dcbff7f	0.099608414
30	0xbe7e2994	-0.24820548
31	0xbd578b79	-0.052623246
32	0xbe502b79	-0.20329084
33	0x3e3f964d	0.18709679
34	0xbd763c82	-0.0601163
35	0xbe73519a	-0.23761597
36	0xbdc7327e	-0.097264275
37	0xbdd6da58	-0.104908645
38	0x3cc985cd	0.024599934
39	0x3d9cb4fd	0.07651708
40	0xbee7bf43	-0.4526311
41	0x3c6e8e23	0.014560255
42	0xbd2f5b9c	-0.042811975
43	0x3ea4e644	0.3220693
44	0x3c1c05dc	0.009522881
45	0x3c4b148c	0.0123950355
46	0x3e95732a	0.29189426
47	0x3b23f586	0.002501817
48	0x3e97c9f3	0.29646263
49	0xbdfbe932	-0.12300338
50	0xbe0dd3b5	-0.13850291
51	0x3e1af903	0.15134053
52	0xbe420af5	-0.18949492
53	0x3e825d45	0.25461784
54	0x3e2f8bdd	0.17143197
55	0x3e239d2f	0.1597793
56	0x3e6accfd	0.2292976
57	0x3d6f8bcc	0.05848293
58	0xbcf0be7e	-0.029387709
59	0xbb8018d1	-0.0039092083
60	0xbc62234b	-0.01380236
61	0xba84e934	-0.0010140301
62	0x3df24699	0.11829872
63	0x3e340726	0.17580852
64	0x3e8bfe29	0.27342346
65	0xbdd04463	-0.10169294
66	0x3d52955d	0.051411975
67	0xbe409575	-0.18807013
68	0x3e926296	0.2859084
69	0xbdc884c6	-0.097909495
70	0x3e190d29	0.14946426
71	0xbda27f0a	-0.07934387
72	0xbd8b1032	-0.067901984
73	0xbde9ff80	-0.11425686
74	0xbd917a17	-0.07103365
75	0x3e5de509	0.21669401
76	0xbaa60562	-0.0012666399
77	0x3e309c75	0.17247184
78	0xbe3a74e0	-0.18208647
79	0x3da2bed7	0.07946556
80	0x3cbb185c	0.022838764
81	0xbe9b76b3	-0.30363998
82	0xbe36926b	-0.17829292
83	0x3c142f02	0.009044411
84	0x3d81edf2	0.063442126
85	0xbda978b3	-0.08274975
86	0x3a1235cc	0.00055774744
87	0xbe8389e0	-0.25691128
88	0x3cc811ec	0.024422608
89	0x3e524dfd	0.20537563
90	0xbd89ca3c	-0.06728026
91	0x3d35f8be	0.044426672
92	0x3e066c31	0.13127209
93	0x3e73e7e9	0.23818935
94	0x3d0a4a78	0.033762425
95	0xbc692709	-0.014230498
96	0x3e334cd9	0.17509784
97	0xbce47c38	-0.027891263
98	0xbe882a06	-0.2659456
99	0x3d93267d	0.071850754

weight_ih_l1 f4 [100, 100]
0	0x3ea2c5ca	0.31791526
1	0xbd969644	-0.0735288
2	0xbe3bea89	-0.18351187
3	0x3ea3cc0b	0.3199161
4	0x3d1a907b	0.037735444
5	0xbeab3ace	-0.33443302
6	0xbedda1e0	-0.43287563
7	0x3c2238e5	0.00990126
8	0x3d032f7c	0.032027707
9	0x3ec0b9b1	0.3764167
10	0x3e00d447	0.12580977
11	0xbee7e032	-0.45288235
12	0xbda373b6	-0.079810545
13	0xbe158625	-0.14601953
14	0x3f0407c3	0.51574343
15	0x3f14624f	0.57962507
16	0xbe0be47e	-0.13661382
17	0xbdc431d1	-0.09579814
18	0x3d067d25	0.03283419
19	0xbedb5460	-0.4283781
20	0x3d828719	0.06373424
21	0x3eb308fc	0.34967792
22	0x3dc25167	0.094881825
23	0xbd146756	-0.03623136
24	0x3f211ab9	0.629314
25	0x3ee38581	0.44437793
26	0x3eeaf281	0.4588814
27	0xbe69ece5	-0.22844274
28	0xbeac6961	-0.33674148
29	0xbec62be1	-0.38705352
30	0xbe9856ec	-0.29753816
31	0xbee31636	-0.44352883
32	0x3eeb3af0	0.45943403
33	0xbdb3f3bf	-0.08786725
34	0xbf2315ef	-0.63705343
35	0xbe8639d1	-0.26215985
36	0xbd8599df	-0.06523489
37	0x3e6b5200	0.229805
38	0x3f44fc7a	0.7694775
39	0xbf1a8f0a	-0.6037451
40	0x3e44e580	0.19228172
41	0xbe79d354	-0.24397022
42	0xbe9c376c	-0.30511034
43	0xbe586894	-0.21133643
44	0xbed53393	-0.4164091
45	0x3dee7214	0.116428524
46	0x3da75277	0.08170026
47	0xbdb63a56	-0.088978454
48	0x3ee9345b	0.45547757
49	0x3caeda16	0.021344226
50	0xbe4e5cae	-0.20152542
51	0x3dc15d85	0.094416656
52	0xbeffa4ae	-0.49930328
53	0x3e93ab91	0.28841832
54	0x3e5dd590	0.21663499
55	0x3e456292	0.19275883
56	0x3f0115f9	0.5042415
57	0x3e7e309f	0.24823235
58	0x3eabe039	0.33569506
59	0xbe92af9d	-0.28649607
60	0xbe88c0fc	-0.26709735
61	0xbdf58f67	-0.119902425
62	0x3e559420	0.20857286
63	0xbdffe191	-0.12494195
64	0xbe4f7829	-0.20260681
65	0x3ef02d6e	0.4690966
66	0x3ed67e8e	0.4189343
67	0x3e3802e0	0.17969847
68	0x3ebf3f5b	0.37353024
69	0xbf434871	-0.7628241
70	0x3e417d6e	0.18895504
71	0xbd649db5	-0.055814464
72	0x3d8ea7df	0.069656126
73	0xbe370b72	-0.1787546
74	0xbce70241	-0.028199317
75	0xbeeb5f7c	-0.45971286
76	0x3d7be36c	0.061496183
77	0x3e1b7743	0.15182213
78	0xbe8e04e5	-0.2773811
79	0x3e2a03ad	0.16602965
80	0xbea75e44	-0.32689106
81	0xbf3064de	-0.6890391
82	0xbecde72a	-0.40215427
83	0x3bb28c25	0.0054488354
84	0xbe4fcd8a	-0.2029325
85	0xbea2f74d	-0.318293
86	0xbe0579ce	-0.13034746
87	0xbe1f9684	-0.15584761
88	0xbe5391c5	-0.20661075
89	0x3d6c1691	0.05763871
90	0x3f065440	0.52472305
91	0x3f027ee8	0.50974894
92	0x3f1facf7	0.623733
93	0x3eec0fce	0.46105808
94	0xbe8f593a	-0.27997762
95	0xbeda83ba	-0.42678624
96	0x3e954c26	0.2915966
97	0xbe736dbb	-0.23772328
98	0xbf1c1e39	-0.60983616
99	0x3d89402c	0.06701693
100	0xbeb59b40	-0.3547001
101	0x3e8017f0	0.25018263
102	0x3e4f188d	0.20224209
103	0xbe07cb02	-0.13261035
104	0x3e46a505	0.19398887
105	0xbd2469d5	-0.04013999
106	0xbd28f092	-0.04124505
107	0xbedf1596	-0.43571156
108	0x3e0d1984	0.13779265
109	0xbe20ddcb	-0.15709607
110	0xbd853ff7	-0.06506341
111	0x3e0d9029	0.13824524
112	0xbda2f0c3	-0.07956078
113	0xbe15a2c1	-0.14612867
114	0xbda29858	-0.079392135
115	0xbee7a043	-0.45239457
116	0x3d8acc22	0.067772165
117	0x3de633ff	0.11240386
118	0x3d993bea	0.07482131
119	0xbf01f169	-0.5075899
120	0xbcbb1235	-0.02283583
121	0xbd6b17d6	-0.05739578
122	0xbe8c34fa	-0.27384168
123	0xbdda0a4f	-0.106464975
124	0xbe29ad9f	-0.16570137
125	0x3d905462	0.07047345
126	0xbe91d922	-0.28485972
127	0xbe2b0f0e	-0.16704962
128	0xbce8f5da	-0.028437544
129	0x3e7e38c6	0.24826345
130	0x3d8b6b02	0.068075195
131	0x3e872e52	0.26402527
132	0xbe981637	-0.2970445
133	0x3e06c337	0.13160406
134	0xbe861915	-0.2619101
135	0x3e73a123	0.23791938
136	0x3e26b2b1	0.16279103
137	0xbe4c103c	-0.19928068
138	0xbd838911	-0.06422628
139	0x3ecbb1d2	0.39784104
140	0xbe235734	-0.15951234
141	0xbe22a5cd	-0.1588356
142	0xbe7e6ac3	-0.24845414
143	0xbc686458	-0.01418408
144	0xbe15ca7f	-0.14628027
145	0x3df0bb06	0.11754422
146	0x3de0d7a3	0.109786294
147	0xbe3633c1	-0.1779318
148	0x3e09ce64	0.13457638
149	0x3d809ef9	0.06280322
150	0xbf251d2a	-0.64497626
151	0x3d2714e4	0.040791407
152	0xbe2dacb4	-0.16960412
153	0x3f04bc76	0.5185007
154	0xbe282f5b	-0.16424315
155	0x3e462854	0.19351321
156	0x3e93f47a	0.28897458
157	0xbe905658	-0.28190875
158	0x3d17362c	0.036916897
159	0xbd188dbf	-0.037244555
160	0xbca54b30	-0.020177454
161	0x3dc98d17	0.09841364
162	0x3dbda2ff	0.09259605
163	0xbd391f8a	-0.045196094
164	0x3f09e13a	0.53859293
165	0xbe03464f	-0.1281979
166	0xbf0cc2de	-0.54984844
167	0x3c7f9e1a	0.015601659
168	0x3deda243	0.116032146
169	0x3f04c1bd	0.5185812
170	0xbe43c6ab	-0.19118755
171	0x3dc0f364	0.09421423
172	0xbe0221d5	-0.12708218
173	0xbe2b0714	-0.16701919
174	0xbdf5a7f3	-0.119949244
175	0x3e63b8c8	0.22238457
176	0x3e0c93cf	0.1372826
177	0x3eb57739	0.35442522
178	0xbe1a17e3	-0.15048175
179	0x3ea1a550	0.31571436
180	0xbe1090ad	-0.1411769
181	0x3de60dd7	0.112331085
182	0xbe1f12eb	-0.1553456
183	0xbd626fb7	-0.05528232
184	0xbd41af65	-0.04728641
185	0x3db9d558	0.09073895
186	0xbe6d5f8b	-0.23180978
187	0xbe4a52c5	-0.19758137
188	0xbd81ac25	-0.06331662
189	0x3f18fc3e	0.5975989
190	0xbe1c1796	-0.15243372
191	0xbe56ed9d	-0.2098908
192	0xbd942f45	-0.072355784
193	0x3da21bb0	0.07915437
194	0xbb43909c	-0.0029840833
195	0xbd59ef79	-0.053206895
196	0xbe20af94	-0.15691978
197	0xbdc0f79d	-0.094222285
198	0xbf1b7a34	-0.6073334
199	0xbdcc2aad	-0.09969077
200	0xbe06e251	-0.1317227
201	0x3e3a40e4	0.18188816
202	0xbd5492ff	-0.051898
203	0xbd981e6c	-0.074276775
204	0x3ed482aa	0.4150594
205	0xbd0adc51	-0.033901516
206	0x3e8c087e	0.2735023
207	0xbe39861f	-0.1811757
208	0xbc0cf87c	-0.008604165
209	0xbd253c44	-0.040340677
210	0xbec1cbbe	-0.37850755
211	0x3d72fa52	0.059320755
212	0xbe25ef09	-0.16204466
213	0xbeb52fe4	-0.353881
214	0x3ead7773	0.33880195
215	0xbf153d7e	-0.58296955
216	0x3eaa39e8	0.33247304
217	0x3d9a0c3a	0.07521863
218	0x3e1da3be	0.15394494
219	0xbee43f8c	-0.44579732
220	0x3e83140b	0.2560123
221	0xbea554d5	-0.32291284
222	0xbe0caa55	-0.13736852
223	0x3e5b8526	0.21437511
224	0xbd67d002	-0.056594856
225	0x3db2251f	0.086984865
226	0x3e3576ba	0.17721072
227	0xbf0bda89	-0.54630333
228	0xbef97aca	-0.48726493
229	0xbe50c550	-0.20387769
230	0x3c92b448	0.01790823
231	0xbe2960db	-0.16540854
232	0xbdc17989	-0.09447009
233	0x3e86cebe	0.26329607
234	0x3e86da92	0.2633863
235	0xbdfa4db3	-0.12221851
236	0xbe7e77f8	-0.24850452
237	0xbdd6d973	-0.10490694
238	0xbda643cb	-0.08118399
239	0xbd106d5c	-0.035260543
240	0x3dc28d32	0.09499587
241	0xbea010f9	-0.3126295
242	0x3e898cd7	0.26865265
243	0x3dc741b3	0.09729328
244	0x3e888a82	0.26668173
245	0x3d853497	0.06504171
246	0x3e62c9b5	0.22147258
247	0x3c8f8825	0.017520973
248	0xbcd7437b	-0.026277294
249	0x3e2e7759	0.17037715
250	0xbe885c96	-0.26633137
251	0x3e3bef52	0.18353012
252	0x3e00ead7	0.12589584
253	0x3ea8b68e	0.32951778
254	0xbe2beedd	-0.16790338
255	0x3dadfaec	0.08495125

weight_hh_l1 f4 [100, 100]
0	0x400972c0	2.1476288
1	0x403afa61	2.921532
2	0x3f46de9d	0.7768343
3	0x3f8282d5	1.0196177
4	0xc06ce1e1	-3.7012866
5	0xc00e3cab	-2.2224529
6	0x406a3bef	3.659908
7	0xc0107afb	-2.2575061
8	0xc061aa7b	-3.5260303
9	0x408c1bc3	4.378389
10	0x3eb60e27	0.35557672
11	0x3e3217c9	0.17391886
12	0x40183a78	2.3785686
13	0xc05f177b	-3.4858081
14	0xc01d94cc	-2.4622068
15	0xbf55e3bf	-0.8355064
16	0xbfe37c3c	-1.7772288
17	0xc06011fe	-3.5010982
18	0xbff5a42d	-1.9190727
19	0xbf2557a9	-0.64586884
20	0xc064a354	-3.5724688
21	0x3e8e7d7a	0.27830106
22	0x3f469fa8	0.77587366
23	0x406a0033	3.6562622
24	0x40327ecb	2.7889888
25	0x3fe314dc	1.7740741
26	0xbfb3c0a7	-1.4043168
27	0xc081c72e	-4.055564
28	0xbc4cce76	-0.012500396
29	0x3f089b70	0.5336218
30	0x3cfc96a8	0.030833557
31	0x4053ede2	3.3113942
32	0x4034ee36	2.8270392
33	0x3f877b16	1.0584438
34	0xc0123ed1	-2.285084
35	0x402a484e	2.6606631
36	0xbfd29041	-1.6450273
37	0xc08d5220	-4.416275
38	0xbffbc423	-1.9669231
39	0x407d0a82	3.9537663
40	0x3ff0326c	1.8765388
41	0xbdd9f09c	-0.10641596
42	0x403a4e02	2.9110112
43	0xbfd5ad9f	-1.669361
44	0xbe45f0be	-0.19330117
45	0x403191a7	2.774515
46	0xbe8948be	-0.2681331
47	0x401df977	2.4683511
48	0xc057d33b	-3.3722675
49	0xbf993271	-1.1968518
50	0x40311aec	2.7672682
51	0x4065f45d	3.5930398
52	0x408247f0	4.0712814
53	0xbd309fc4	-0.043121114
54	0x3f82d36b	1.022077
55	0xbf935347	-1.1509789
56	0xbfd225c2	-1.6417773
57	0xc04e11fc	-3.2198477
58	0x3f23dd8e	0.6400994
59	0xbea23a8b	-0.3168529
60	0xc0820ffe	-4.064452
61	0x4052ef84	3.2958689
62	0xbe998421	-0.2998362
63	0xc07eff38	-3.9843273
64	0xbfde78b4	-1.7380586
65	0x3e112752	0.14175156
66	0x3fd69eab	1.6767172
67	0x40279d69	2.6189826
68	0x408884e3	4.2662215
69	0x3f8c2276	1.0948017
70	0xbfa1ffe1	-1.2656213
71	0x3f9fff93	1.249987
72	0x406a59c7	3.6617296
73	0x4016e089	2.3574545
74	0x3ff1ddf5	1.8895861
75	0xc072e76f	-3.7953756
76	0x40043ad0	2.0660896
77	0x403c7684	2.9447336
78	0x3f28a646	0.65878713
79	0x4047589e	3.1147838
80	0xbf8a749a	-1.0816834
81	0x40259747	2.5873582
82	0x4080f22f	4.0295634
83	0x40315f8d	2.771457
84	0xbf47a471	-0.7798529
85	0x4024ba70	2.5738792
86	0xc01b6b9e	-2.4284434
87	0x408338c9	4.100682
88	0x3f9fe5fb	1.249206
89	0x3f4d3dcf	0.8017244
90	0x40193058	2.3935757
91	0xc025dda5	-2.591653
92	0xc070fb23	-3.7653282
93	0xbd8dd02d	-0.06924472
94	0xc0092b56	-2.14327
95	0x3fa3b122	1.2788432
96	0xc0478b7f	-3.1178892
97	0x3e81a7a1	0.25323203
98	0x4061e45b	3.5295627
99	0xc08a8dd1	-4.3298116
100	0xc00b8c78	-2.1804485
101	0xbff0caee	-1.8811929
102	0xbdfc17f5	-0.12309257
103	0xbe32698e	-0.17423078
104	0xbf51d73e	-0.8196906
105	0x3ffe9926	1.9890487
106	0xbfe9eb05	-1.8274847
107	0x4005eba9	2.0925086
108	0x3fe35c50	1.7762547
109	0xbf18ba43	-0.5965921
110	0xc01a2f2b	-2.409129
111	0xbf70cf84	-0.94066644
112	0xbf5d9b8b	-0.86565465
113	0x3f4f567f	0.8099136
114	0xbd9f628f	-0.077824704
115	0x3f7120a9	0.9419046
116	0x3fe5fc4f	1.7967623
117	0x3f9b6037	1.2138737
118	0x402d74bd	2.7102501
119	0xc0380c95	-2.875768
120	0xbfd54fdc	-1.6664996
121	0xbf02dfce	-0.5112275
122	0xbfb932b2	-1.4468596
123	0xbfde0fa3	-1.7348522
124	0x3d0e8cb5	0.034802157
125	0xbfae9de7	-1.3641938
126	0x3e15bf7d	0.14623828
127	0x3faf80df	1.3711203
128	0xbe4500a6	-0.19238529
129	0xbc8ef2b2	-0.01744971
130	0x3e23c527	0.15993176
131	0x3f7a49af	0.9776868
132	0xbfc7e214	-1.5615869
133	0xc0154919	-2.3325865
134	0x40159231	2.3370478
135	0xc0203ab0	-2.503582
136	0xbf92a200	-1.1455688
137	0x3f9fe027	1.2490281
138	0xbfd8fbff	-1.6951903
139	0xbff3b3cb	-1.9039243
140	0xbe87041f	-0.26370332
141	0x3f85bc41	1.0448076
142	0xbe85dbab	-0.26144156
143	0x402c61af	2.6934621
144	0xbf92b7a8	-1.1462297
145	0xbfac0fe6	-1.3442352
146	0xbe7971fd	-0.2435989
147	0xc01c62d2	-2.4435315
148	0x4013334e	2.3000064
149	0x3f40072e	0.75010955
150	0x3ecb2047	0.39673063
151	0x3dbce261	0.09222866
152	0xbfd711dc	-1.6802325
153	0xbf152981	-0.58266455
154	0xbfb9a1a1	-1.450245
155	0x3f584d14	0.8449261
156	0xbede0755	-0.4336497
157	0x3fbf69c4	1.4954152
158	0xbdacaf1a	-0.084318355
159	0xbf8ac44e	-1.0841157
160	0x4074e142	3.8262486
161	0xbf036f6f	-0.5134191
162	0xbfb0b28e	-1.380449
163	0xbe7f822e	-0.24952003
164	0x3fe85c64	1.8153195
165	0xbfba4570	-1.4552441
166	0xbf6105da	-0.87899554
167	0x3f4254ba	0.7591053
168	0x3fe12620	1.758976
169	0xbfb90e55	-1.4457499
170	0x3f64a3c0	0.8931236
171	0xbc747194	-0.014919657
172	0xbf68948e	-0.90851676
173	0xc012bbc6	-2.2927108
174	0xc0191373	-2.391812
175	0x3fb2adda	1.3959305
176	0xc008ef75	-2.1396153
177	0xbec3fe88	-0.3828013
178	0xbfcb1006	-1.5864265
179	0xbf5298a9	-0.8226419
180	0x3fa32dfd	1.274841
181	0x3ef7ca04	0.48396313
182	0xbf818e02	-1.0121462
183	0x3f212eaf	0.6296186
184	0x4020e221	2.5138018
185	0xbff4d964	-1.9128842
186	0xbe464a05	-0.19364174
187	0xbfd4e002	-1.6630862
188	0xbf35f910	-0.71083164
189	0x3e0c4b92	0.13700703
190	0xbd982eaa	-0.074307755
191	0x3dcfa483	0.101388
192	0xbf03ea14	-0.5152905
193	0xbfa0d195	-1.2563959
194	0xbf958976	-1.1682575
195	0xbff17b3f	-1.8865737
196	0x405addf8	3.419798
197	0x3f7bf960	0.9842739
198	0xc039c8a7	-2.9028718
199	0x3fbf7676	1.4958026
200	0xbec87012	-0.39148003
201	0xbe96e50d	-0.29471627
202	0x3ec570fd	0.38562766
203	0x3f232337	0.6372561
204	0xbf0e159a	-0.5550171
205	0x3f1a9d7c	0.6039655
206	0x3f9ca1a7	1.2236832
207	0xbdf569b3	-0.11983051
208	0x3fb01e6a	1.3759282
209	0x3eb48ed9	0.35265234
210	0xc02152e0	-2.5206833
211	0xbf06315a	-0.52419055
212	0x3f6aaa09	0.91665703
213	0xbfa6bf42	-1.3027117
214	0x3f4c8245	0.79886276
215	0x3f1bac6c	0.6080997
216	0xbe5d14a6	-0.21589908
217	0xbe7bf094	-0.24603492
218	0xbe4d23ad	-0.2003314
219	0xbface51c	-1.3507419
220	0xbff15c95	-1.8856379
221	0x3dc0b69c	0.0940983
222	0xbc38d8b6	-0.011282137
223	0xbeee9a3a	-0.4660204
224	0x3ec650ce	0.38733524
225	0x403b91a2	2.9307637
226	0xbd00c25f	-0.031435367
227	0x3f7eb446	0.99493825
228	0x3ead97f7	0.33905002
229	0x3f59dcf9	0.851028
230	0xbe01bacd	-0.12668915
231	0x3f31fbfc	0.6952512
232	0x401bf7df	2.4370039
233	0xbde96127	-0.113954835
234	0xbf662626	-0.8990196
235	0xbef3f277	-0.47645923
236	0xbf5b4e35	-0.8566621
237	0xbf8a59a6	-1.0808609
238	0x3f6154c7	0.88019985
239	0x3f749eac	0.95554614
240	0x3f083e06	0.5321964
241	0xbf7ce735	-0.98790294
242	0x3fbb1d37	1.4618291
243	0x3ff84dc2	1.939873
244	0x3d0ccf91	0.03437764
245	0x3ff26282	1.8936312
246	0x3ed818bf	0.4220638
247	0x3ee0fa45	0.4394094
248	0x402242ec	2.5353346
249	0x3e9d46a3	0.30717954
250	0x3f9da3e6	1.2315643
251	0x3fc1fedb	1.5155901
252	0xbf2b491a	-0.6690842
253	0x3f1b4520	0.6065235
254	0xbf0a2be6	-0.53973234
255	0x3e954c9d	0.29160014

bias_ih_l1 f4 [100]
0	0xbeb33904	-0.35004437
1	0x3e8fbae2	0.28072268
2	0x3e899b07	0.2687609
3	0x3f1782b7	0.5918383
4	0xbebf6b52	-0.37386566
5	0xbee14924	-0.44001114
6	0x3e873907	0.26410696
7	0xbe3063d8	-0.17225587
8	0xbe42eb5c	-0.19035095
9	0x3ed42b91	0.4143949
10	0xbc740b4a	-0.01489527
11	0x3de96382	0.11395933
12	0xbd460161	-0.04834116
13	0x3e2b39d7	0.16721283
14	0xbe74328f	-0.23847412
15	0xbdfce9a8	-0.12349254
16	0xbe095662	-0.13411859
17	0x3e428d84	0.18999296
18	0x3eadd4f6	0.3395154
19	0x3eb301b9	0.34962252
20	0x3e1e02a9	0.15430702
21	0xbc49328c	-0.012280118
22	0x3eed3451	0.46328977
23	0x3e8f1f90	0.27953768
24	0xbf150fb8	-0.5822711
25	0x3e2ed48d	0.17073269
26	0xbe88e904	-0.26740277
27	0xbe7cec7c	-0.24699587
28	0x3e2182db	0.15772574
29	0x3e71bd73	0.23607425
30	0xbe786e2b	-0.24260776
31	0x3df7a6eb	0.12092384
32	0xbe538d9a	-0.20659485
33	0xbdf41cad	-0.11919532
34	0xbec52e5c	-0.38511932
35	0xbed9b5f1	-0.42521623
36	0x3de24835	0.11048929
37	0xbe9a049c	-0.30081642
38	0x3ea5be93	0.3237196
39	0x3e796b47	0.2435733
40	0xbec3bed5	-0.3823153
41	0x3d434bb6	0.047679625
42	0xbe42a22c	-0.19007176
43	0x3dab76f7	0.083723
44	0x3dc6f7e7	0.09715252
45	0xbea8e59e	-0.32987684
46	0x3eb58c08	0.35458398
47	0x3ef56b44	0.479334
48	0x3e8efe8a	0.27928573
49	0xbeab3ad1	-0.3344331
50	0xbe105952	-0.14096573
51	0x3ea7ba33	0.32759246
52	0x3de7dab7	0.113210134
53	0xbe6e608c	-0.23279017
54	0x3e25efe2	0.1620479
55	0x3f0f5f66	0.5600494
56	0x3ecf44db	0.4048222
57	0xbe908991	-0.28229955
58	0xbf25831f	-0.646532
59	0x3e200d7d	0.15630145
60	0x3e3421c9	0.17591013
61	0x3e6454ba	0.22297946
62	0xbe857e4b	-0.26072916
63	0xbe41dc07	-0.1893159
64	0x3cdc18d6	0.026867311
65	0x3e2b96b0	0.16756701
66	0xbe8eea5e	-0.27913183
67	0xbdcc8089	-0.09985454
68	0x3d6be486	0.057590984
69	0x3e8ebda4	0.2787906
70	0x3f075098	0.5285735
71	0xbf021acd	-0.50822145
72	0x3dc78c55	0.09743563
73	0xbe6c13b5	-0.23054393
74	0xbecda75f	-0.40166757
75	0xbeab7196	-0.33485097
76	0xbebc167f	-0.36735913
77	0x3e83de72	0.2575565
78	0x3ddbc9b7	0.107318334
79	0x3e8be918	0.27326274
80	0xbf2ecdfc	-0.6828306
81	0xbe3ed42f	-0.18635629
82	0x3e800717	0.2500541
83	0xbedeede4	-0.4354087
84	0x3f14fd54	0.5819905
85	0xbe9fed1c	-0.31235588
86	0x3e7eec7e	0.24894902
87	0xbe31282f	-0.17300485
88	0x3e7e98cd	0.24862976
89	0xbea79bf2	-0.32736164
90	0xbe6c27ac	-0.23062009
91	0xbc3abc8b	-0.011397491
92	0xbd6d97e8	-0.058006197
93	0x3e91f2ef	0.28505656
94	0x3ea89e5d	0.32933322
95	0x3d9b515a	0.07583876
96	0x3e2598b3	0.16171531
97	0xbdcdb0d4	-0.10043493
98	0x3e148ac9	0.14506067
99	0xbe46a2d5	-0.19398053

bias_hh_l1 f4 [100]
0	0xbeebc5e6	-0.46049422
1	0x3ead48ff	0.33844754
2	0x3ea3e69c	0.32011878
3	0x3f152e01	0.5827332
4	0xbebaf32e	-0.36513656
5	0xbf13e443	-0.57770175
6	0x3ea080e8	0.31348348
7	0xbe550b1b	-0.20805018
8	0xbe1fd9db	-0.15610449
9	0x3e83c190	0.25733614
10	0x3d0556b1	0.03255338
11	0xbd2f17bd	-0.042747248
12	0xbdde969f	-0.108685724
13	0x3dcbb0ea	0.09945853
14	0xbe6daa9b	-0.23209612
15	0xbe2093dd	-0.15681405
16	0xbe2e68c9	-0.1703216
17	0x3e2daff6	0.16961655
18	0x3eaa5bba	0.33273107
19	0x3ed6f3b7	0.41982815
20	0x3ddde301	0.10834313
21	0x3d80569f	0.06266522
22	0x3eecf4e7	0.46280596
23	0x3e77fbed	0.24217196
24	0xbf158cc9	-0.58417946
25	0x3d932ef1	0.07186688
26	0xbeb48f54	-0.352656
27	0xbe29c1e7	-0.16577874
28	0x3ca6d0f1	0.020363303
29	0x3e035ee1	0.12829162
30	0xbe925125	-0.28577533
31	0x3e9ce32d	0.3064207
32	0xbe5e2d32	-0.21696928
33	0xbe321749	-0.17391695
34	0xbebf43d6	-0.37356442
35	0xbedb955d	-0.42887393
36	0x3e15d66e	0.1463258
37	0xbea90ec8	-0.3301909
38	0x3ea8bd9f	0.3295717
39	0x3e6ec3df	0.23316906
40	0xbf025871	-0.509162
41	0xbd84b199	-0.064791866
42	0xbdf3b7ba	-0.119002774
43	0x3de34ae9	0.11098272
44	0x3e35367b	0.17696564
45	0xbe9b7ba0	-0.30367756
46	0x3ea2a3ea	0.31765682
47	0x3ec97e28	0.39354062
48	0x3e845218	0.25843883
49	0xbe830653	-0.25590762
50	0xbe235de6	-0.15953788
51	0x3ea2ffe9	0.3183587
52	0x3e7da4f2	0.24769953
53	0xbe21b38c	-0.15791148
54	0xbaf010bc	-0.0018315534
55	0x3f003833	0.50085753
56	0x3e9c00f3	0.30469474
57	0xbe6ceabe	-0.23136422
58	0xbf01b71a	-0.50670016
59	0x3d8ab7ee	0.06773363
60	0x3e5d5eb5	0.21618159
61	0x3d9b9166	0.07596092
62	0xbed3ffc3	-0.41406068
63	0xbe7287f7	-0.23684679
64	0x3d37af04	0.044844642
65	0x3dd88e7e	0.10574053
66	0xbddfca98	-0.109273136
67	0xbdaa31ab	-0.08310255
68	0x3e3602f3	0.17774563
69	0x3e73630f	0.23768257
70	0x3f10c156	0.5654501
71	0xbf0342cd	-0.51273805
72	0x3d9e9953	0.07744088
73	0xbe446799	-0.19180144
74	0xbec8ecdb	-0.39243206
75	0xbee0c23c	-0.4389819
76	0xbe9280d7	-0.28613922
77	0x3e09bdb1	0.13451268
78	0x3e05edf6	0.13079056
79	0x3ed7f326	0.42177695
80	0xbf41c50e	-0.75691307
81	0xbd5e0610	-0.054205
82	0x3ddd8b2e	0.10817562
83	0xbeddc044	-0.4331075
84	0x3f11be84	0.5693133
85	0xbe994c72	-0.29941136
86	0x3e8cffc4	0.27538884
87	0xbe1f6134	-0.15564424
88	0x3e93f91c	0.28900993
89	0xbeadfa1e	-0.33979887
90	0xbe7b3b22	-0.24534276
91	0xbd3cfb3f	-0.046138044
92	0xbe102ad4	-0.14078838
93	0x3e4f441b	0.20240824
94	0x3e8a07cf	0.26959082
95	0x3e4f5e2a	0.20250764
96	0x3e752899	0.23941268
97	0xbe84ef10	-0.2596364
98	0x3e7eb139	0.24872293
99	0xbe6fabfb	-0.23405449

weight f4 [100, 100]
0	0x3e20cb85	0.15702637
1	0xbdf047cf	-0.117324464
2	0xbe1d7385	-0.15376098
3	0xbe157f7f	-0.14599417
4	0x3e2db087	0.16961871
5	0x3e8e0af2	0.27742726
6	0xbe39b074	-0.18133718
7	0x3dbe60ab	0.09295782
8	0x3ddc1947	0.10747009
9	0xbeb6a843	-0.35675249
10	0xbbf3ffaf	-0.0074462513
11	0xbe04c6fe	-0.12966534
12	0x3dbcb1cc	0.092135996
13	0xbd53090c	-0.0515223
14	0x3f0e1c2a	0.55511725
15	0x3ef84e17	0.48497078
16	0x3dad8121	0.08471895
17	0xbf0eba12	-0.5575267
18	0xbe90f1ca	-0.2830947
19	0xbeb58fe4	-0.35461342
20	0xbc784247	-0.0151525205
21	0xbd2aa31d	-0.041659463
22	0xbe856f98	-0.26061702
23	0xbe4f5bcf	-0.20249866
24	0x3e6957d8	0.22787416
25	0xbccf6019	-0.025314378
26	0x3ea1d3be	0.3160686
27	0x3e4c7469	0.19966282
28	0xbe9e9de3	-0.30979833
29	0xbe64ab8b	-0.22331063
30	0x3f00da8b	0.5033347
31	0xbe97535e	-0.29555792
32	0xbb28866b	-0.0025714885
33	0x3e4253ce	0.18977281
34	0x3e3aad51	0.18230177
35	0x3df0791b	0.11741849
36	0xbd148fb2	-0.03626985
37	0x3ea426d4	0.32060874
38	0xbe9e55a0	-0.30924702
39	0xbea23960	-0.316844
40	0x3e3f4141	0.18677236
41	0xbbcc0771	-0.006226473
42	0x3e72804e	0.23681757
43	0xbe183857	-0.14865242
44	0xbef5f04d	-0.48034897
45	0x3e5980ee	0.21240589
46	0xbe834703	-0.25640115
47	0xbeddd812	-0.4332891
48	0xbe72cd87	-0.23711215
49	0x3e264001	0.16235353
50	0x3e827bdc	0.25485122
51	0xbdd1871e	-0.1023085
52	0xbe129664	-0.14315182
53	0xbc82beac	-0.01596006
54	0xbdbd2882	-0.09236242
55	0xbe88a6a3	-0.26689634
56	0xbea3a659	-0.3196285
57	0x3ea9535a	0.33071405
58	0x3ee29ca1	0.44260123
59	0xbd8c2c29	-0.068443604
60	0xbf113652	-0.5672351
61	0xbd89b127	-0.06723242
62	0x3e9b3e5e	0.3032102
63	0x3e826c25	0.25473133
64	0x3d5c748e	0.053822093
65	0x3e2a6883	0.1664143
66	0x3e353cae	0.17698929
67	0x3e808fd7	0.2510974
68	0xbe813828	-0.25238156
69	0xbe64bf4e	-0.22338602
70	0xbe934f98	-0.28771663
71	0x3ea3ae44	0.31968892
72	0xbe93e68d	-0.28886834
73	0x3d56488a	0.052315272
74	0x3f0429b2	0.5162612
75	0x3e6bc305	0.23023613
76	0x3e9ae120	0.30249882
77	0xbe3569de	-0.17716166
78	0xbd910950	-0.07081854
79	0xbe9a0909	-0.30085018
80	0x3ea08c84	0.31357205
81	0x3ea752e0	0.32680416
82	0xbe72d38d	-0.23713513
83	0x3ed27929	0.41108063
84	0xbf028dcb	-0.5099761
85	0x3ec81cd4	0.39084494
86	0xbed18139	-0.40918902
87	0x3f3000dd	0.6875132
88	0xbd727dda	-0.059202053
89	0x3ea9f5f9	0.33195475
90	0x3e3da04c	0.1851818
91	0x3d3de30f	0.046359118
92	0xbe269bba	-0.16270342
93	0xbd98060e	-0.0742303
94	0xbeaa368d	-0.33244744
95	0xbe250d5e	-0.1611838
96	0xbe5c00a5	-0.21484621
97	0x394fae43	0.00019805976
98	0xbe4ed32c	-0.20197743
99	0x3e3ec2a0	0.18628931
100	0x3dc5de3d	0.09661529
101	0xbe16e3d5	-0.14735349
102	0xbc689b14	-0.01419713
103	0xbe90e65d	-0.28300753
104	0x3eaa92fd	0.33315268
105	0x3ea6e458	0.32596087
106	0xbe0f24b4	-0.13978845
107	0x3e851eb9	0.26000002
108	0x3e76c077	0.24096857
109	0xbea31b3e	-0.31856722
110	0x3ca8e1fe	0.020615574
111	0xbcd4ce8d	-0.025977397
112	0x3e167b34	0.14695436
113	0xbda69d6e	-0.08135496
114	0x3f0e8742	0.5567514
115	0x3f08b075	0.5339425
116	0x3e764a2d	0.24051733
117	0xbed85573	-0.42252693
118	0xbed5f33b	-0.41787133
119	0xbeea0a09	-0.4571078
120	0xbd2a6163	-0.04159678
121	0xbd9b08f3	-0.07570066
122	0xbeae7b03	-0.34078225
123	0xbe1ea0bf	-0.15491007
124	0x3eb4de42	0.3532582
125	0xbb39d77d	-0.00283572
126	0x3eba3247	0.36366484
127	0x3e1c476f	0.15261625
128	0xbe94649d	-0.28983012
129	0xbe462d5a	-0.19353238
130	0x3e9f3591	0.31095555
131	0xbe9fb2a5	-0.31190982
132	0x3d451965	0.04811992
133	0x3e46c3cc	0.19410628
134	0x3e6ea428	0.23304808
135	0x3e84cdb8	0.259382
136	0xbd7084a6	-0.058720253
137	0x3e69f0b6	0.2284573
138	0xbe52cdc1	-0.20586301
139	0xbe3c647f	-0.18397711
140	0x3e417278	0.18891323
141	0xbcfd7f94	-0.030944623
142	0x3e47c4e8	0.19508708
143	0xbcc9f308	-0.02465202
144	0xbf04ddc1	-0.5190087
145	0x3e85b38b	0.26113543
146	0xbe3d1326	-0.18464336
147	0xbeff8e25	-0.49913135
148	0xbe9a6a56	-0.30159253
149	0x3e893632	0.2679916
150	0x3edb66ac	0.4285177
151	0xbe2e21d3	-0.1700509
152	0xbe1d95d1	-0.15389182
153	0xbb6501c2	-0.0034943675
154	0xbe175074	-0.14776784
155	0xbde227b6	-0.110427305
156	0xbe76ba4d	-0.24094506
157	0x3e842748	0.2581122
158	0x3f23b7d8	0.639524
159	0x3d636297	0.055513944
160	0xbf0fc03f	-0.5615272
161	0xbd6ddc9f	-0.05807173
162	0x3e8a0169	0.269542
163	0x3e4b025d	0.1982512
164	0x3d928d1a	0.07155819
165	0x3e269827	0.16268979
166	0x3e59f4fe	0.21284863
167	0x3e704a56	0.23465857
168	0xbea215a9	-0.3165715
169	0xbe63cf32	-0.22247007
170	0xbe121a8c	-0.1426794
171	0x3e765885	0.24057205
172	0xbe35c265	-0.17749937
173	0x3e6b7d8d	0.22997113
174	0x3f1425c2	0.57870114
175	0x3e54b145	0.20770748
176	0x3eafc9df	0.34333703
177	0xbe88eb8c	-0.26742208
178	0xbe130c9c	-0.14360279
179	0xbe63d8fc	-0.22250742
180	0x3ed29461	0.4112883
181	0x3e9d2a34	0.3069626
182	0xbe430048	-0.19043076
183	0x3eba470d	0.36382332
184	0xbed20b75	-0.41024366
185	0x3eab9352	0.33510834
186	0xbeea9b73	-0.45821723
187	0x3f18c528	0.59675837
188	0xbe085fe7	-0.13317834
189	0x3e90235f	0.28151986
190	0x3e5a62ee	0.21326801
191	0x3db73b73	0.08946886
192	0xbe1aaf06	-0.15105829
193	0x3c9409b7	0.018071039
194	0xbeb5374a	-0.35393745
195	0xbe37eb6a	-0.17960897
196	0xbdf8d906	-0.12150769
197	0xbd73e943	-0.059548628
198	0xbe028078	-0.1274432
199	0x3ea2a796	0.31768483
200	0x3e40b6c9	0.18819727
201	0xbe14cd81	-0.14531519
202	0xbd08abc9	-0.033366952
203	0xbe770c23	-0.24125724
204	0x3eb8e8fe	0.3611526
205	0x3ea2f593	0.31827983
206	0xbe6ff1bc	-0.23432058
207	0x3e1b1925	0.1514631
208	0x3e134ffb	0.14385979
209	0xbe980001	-0.29687503
210	0x3e0dc39a	0.13844147
211	0xbe0c00eb	-0.13672225
212	0x3df34483	0.11878302
213	0xbdac90e0	-0.0842607
214	0x3f2f8406	0.68560827
215	0x3ea8146f	0.3282809
216	0x3e310abe	0.17289254
217	0xbefd0813	-0.49420223
218	0xbec874db	-0.39151654
219	0xbee20cb3	-0.44150314
220	0xbd611243	-0.054949056
221	0xbd4e581c	-0.050376996
222	0xbebec309	-0.37258175
223	0xbdcd4ea3	-0.100247644
224	0x3eb63ed1	0.355948
225	0x3d427eaf	0.047484096
226	0x3ec3272d	0.38115826
227	0x3e8055b6	0.25065392
228	0xbe0c0c85	-0.13676651
229	0xbe84d8cd	-0.25946656
230	0x3ebfb1cb	0.37440333
231	0xbe71b863	-0.23605494
232	0x3d14a853	0.03629334
233	0x3e0e039a	0.13868561
234	0x3e275c37	0.16343771
235	0x3e924b63	0.2857314
236	0x3c66000e	0.014038099
237	0x3e60e326	0.2196165
238	0xbe928bd2	-0.286223
239	0xbea28823	-0.3174449
240	0x3e7d894e	0.24759409
241	0xbc9229d2	-0.017842207
242	0x3e3f59e7	0.18686639
243	0xbdd5082b	-0.104019485
244	0xbef93dd5	-0.48679987
245	0x3e6cdca9	0.2313105
246	0xbe3dd60a	-0.1853868
247	0xbefb2e33	-0.49058685
248	0xbe8955df	-0.26823327
249	0x3e869a1c	0.2628945
250	0x3ecfc917	0.40583107
251	0xbe863615	-0.26213136
252	0xbe10968b	-0.14119928
253	0x3d2ca4da	0.042149402
254	0xbdd8c9ec	-0.105853885
255	0xbe1d9915	-0.15390427
